…
z = Concatenate(axis=1)(maxpool_pool)   
z = Flatten()(z)
z = Dropout(0.1)(z)
outp = Dense(num_classes, activation="softmax")(z)
model = Model(inputs=inp, outputs=outp)
model.compile(loss='categorical_crossentropy', optimizer='adam', metrics=['accuracy'])
model.summary()
__________________________________________________________________________________________________
Layer (type)                    Output Shape         Param #     Connected to                     
==================================================================================================
input_1 (InputLayer)            (None, 350)          0                                            
__________________________________________________________________________________________________
embedding_1 (Embedding)         (None, 350, 300)     10949400    input_1[0][0]                    
__________________________________________________________________________________________________
reshape_1 (Reshape)             (None, 350, 300, 1)  0           embedding_1[0][0]                
__________________________________________________________________________________________________
conv2d_1 (Conv2D)               (None, 350, 1, 36)   10836       reshape_1[0][0]                  
__________________________________________________________________________________________________
conv2d_2 (Conv2D)               (None, 349, 1, 36)   21636       reshape_1[0][0]                  
__________________________________________________________________________________________________
conv2d_3 (Conv2D)               (None, 348, 1, 36)   32436       reshape_1[0][0]                  
__________________________________________________________________________________________________
conv2d_4 (Conv2D)               (None, 346, 1, 36)   54036       reshape_1[0][0]                  
__________________________________________________________________________________________________
max_pooling2d_1 (MaxPooling2D)  (None, 1, 1, 36)     0           conv2d_1[0][0]                   
__________________________________________________________________________________________________
max_pooling2d_2 (MaxPooling2D)  (None, 1, 1, 36)     0           conv2d_2[0][0]                   
__________________________________________________________________________________________________
max_pooling2d_3 (MaxPooling2D)  (None, 1, 1, 36)     0           conv2d_3[0][0]                   
__________________________________________________________________________________________________
max_pooling2d_4 (MaxPooling2D)  (None, 1, 1, 36)     0           conv2d_4[0][0]                   
__________________________________________________________________________________________________
concatenate_1 (Concatenate)     (None, 4, 1, 36)     0           max_pooling2d_1[0][0]            
                                                                 max_pooling2d_2[0][0]            
                                                                 max_pooling2d_3[0][0]            
                                                                 max_pooling2d_4[0][0]            
__________________________________________________________________________________________________
flatten_1 (Flatten)             (None, 144)          0           concatenate_1[0][0]              
__________________________________________________________________________________________________
dropout_1 (Dropout)             (None, 144)          0           flatten_1[0][0]                  
__________________________________________________________________________________________________
dense_1 (Dense)                 (None, 3)            435         dropout_1[0][0]                  
==================================================================================================
Total params: 11,068,779
Trainable params: 11,068,779
Non-trainable params: 0
__________________________________________________________________________________________________
In [66]:
# X_train
In [67]:
%%time
early_stopping = EarlyStopping(monitor="val_acc", patience=2, verbose=1)
…
x = Bidirectional(CuDNNLSTM(128, return_sequences=True))(x)
x = Bidirectional(CuDNNLSTM(64, return_sequences=True))(x)
x = Attention(max_words)(x)
x = Dense(64, activation="relu")(x)
x = Dense(num_classes, activation="softmax")(x)
modelATT = Model(inputs=inp, outputs=x)
modelATT.compile(loss='categorical_crossentropy', optimizer=Adam(lr=1e-3), metrics=['accuracy'])
modelATT.summary()
_________________________________________________________________
Layer (type)                 Output Shape              Param #   
=================================================================
input_2 (InputLayer)         (None, 350)               0         
_________________________________________________________________
embedding_2 (Embedding)      (None, 350, 300)          10949400  
_________________________________________________________________
bidirectional_1 (Bidirection (None, 350, 256)          440320    
_________________________________________________________________
bidirectional_2 (Bidirection (None, 350, 128)          164864    
_________________________________________________________________
attention_1 (Attention)      (None, 128)               478       
_________________________________________________________________
dense_2 (Dense)              (None, 64)                8256      
_________________________________________________________________
dense_3 (Dense)              (None, 3)                 195       
=================================================================
Total params: 11,563,513
Trainable params: 11,563,513
Non-trainable params: 0
_________________________________________________________________
In [71]:
%%time
early_stopping = EarlyStopping(monitor="val_acc", patience=2, verbose=1)
historyATT=modelATT.fit(X_train, Y_train, validation_data=(X_val, Y_val),epochs=epochs, batch_size=batch_size, verbose=1,callbacks=[early_stopping])
…
model5_CNN.add(Dropout(0.2))
model5_CNN.add(Conv1D(64,kernel_size=3,padding='same',activation='relu',strides=1))
model5_CNN.add(GlobalMaxPooling1D())
# model5_CNN.add(Dense(128,activation='relu'))
# model5_CNN.add(Dropout(0.2))
model5_CNN.add(Dense(num_classes,activation='sigmoid'))
model5_CNN.compile(loss='categorical_crossentropy',optimizer='adam',metrics=['accuracy'])
model5_CNN.summary()
_________________________________________________________________
Layer (type)                 Output Shape              Param #   
=================================================================
embedding_6 (Embedding)      (None, 350, 100)          3649800   
_________________________________________________________________
dropout_2 (Dropout)          (None, 350, 100)          0         
_________________________________________________________________
conv1d_1 (Conv1D)            (None, 350, 64)           19264     
_________________________________________________________________
global_max_pooling1d_1 (Glob (None, 64)                0         
_________________________________________________________________
dense_7 (Dense)              (None, 3)                 195       
=================================================================
Total params: 3,669,259
Trainable params: 3,669,259
Non-trainable params: 0
_________________________________________________________________
In [83]:
%%time
early_stop = EarlyStopping(monitor = "val_loss", mode = "min", patience = 3)
history5=model5_CNN.fit(X_train, Y_train, validation_data=(X_val, Y_val),epochs=10, batch_size=batch_size, verbose=1,callbacks = [early_stop])
…
model6_CnnGRU.add(Dropout(0.25))
model6_CnnGRU.add(GRU(128,return_sequences=True))
model6_CnnGRU.add(Dropout(0.3))
model6_CnnGRU.add(Flatten())
# model6_CnnGRU.add(Dense(128,activation='relu'))
# model6_CnnGRU.add(Dropout(0.5))
model6_CnnGRU.add(Dense(num_classes,activation='sigmoid'))
model6_CnnGRU.compile(loss='categorical_crossentropy',optimizer='adam',metrics=['accuracy'])
model6_CnnGRU.summary()
_________________________________________________________________
Layer (type)                 Output Shape              Param #   
=================================================================
embedding_7 (Embedding)      (None, 350, 100)          3649800   
_________________________________________________________________
conv1d_2 (Conv1D)            (None, 350, 64)           19264     
_________________________________________________________________
max_pooling1d_1 (MaxPooling1 (None, 175, 64)           0         
_________________________________________________________________
dropout_3 (Dropout)          (None, 175, 64)           0         
_________________________________________________________________
gru_3 (GRU)                  (None, 175, 128)          74112     
_________________________________________________________________
dropout_4 (Dropout)          (None, 175, 128)          0         
_________________________________________________________________
flatten_2 (Flatten)          (None, 22400)             0         
_________________________________________________________________
dense_8 (Dense)              (None, 3)                 67203     
=================================================================
Total params: 3,810,379
Trainable params: 3,810,379
Non-trainable params: 0
_________________________________________________________________
In [86]:
%%time
history6=model6_CnnGRU.fit(X_train, Y_train, validation_data=(X_val, Y_val),epochs=10, batch_size=batch_size, verbose=1,callbacks=[early_stop])
Train on 4223 samples, validate on 1056 samples
…
model7_GruCNN.add(Conv1D(32 , kernel_size=3 , padding='same' , activation='relu'))
model7_GruCNN.add(GlobalMaxPooling1D())
# model7_GruCNN.add(Dense(units = 64 , activation='relu'))
# model7_GruCNN.add(Dropout(0.5))
model7_GruCNN.add(Dense(num_classes,activation='softmax'))
model7_GruCNN.compile(loss='categorical_crossentropy' , optimizer = 'adam' , metrics=['accuracy'])
model7_GruCNN.summary()
_________________________________________________________________
Layer (type)                 Output Shape              Param #   
=================================================================
embedding_8 (Embedding)      (None, 350, 300)          10949400  
_________________________________________________________________
dropout_5 (Dropout)          (None, 350, 300)          0         
_________________________________________________________________
bidirectional_4 (Bidirection (None, 350, 256)          329472    
_________________________________________________________________
conv1d_3 (Conv1D)            (None, 350, 32)           24608     
_________________________________________________________________
global_max_pooling1d_2 (Glob (None, 32)                0         
_________________________________________________________________
dense_9 (Dense)              (None, 3)                 99        
=================================================================
Total params: 11,303,579
Trainable params: 11,303,579
Non-trainable params: 0
_________________________________________________________________
In [89]:
%%time
history7 = model7_GruCNN.fit(X_train, Y_train, validation_data=(X_val, Y_val),epochs=10, batch_size=batch_size, verbose=1,callbacks=[early_stop])
Train on 4223 samples, validate on 1056 samples
…
